{"config": [{"class_name": "Lambda", "config": {"output_shape": [64, 64, 3], "function": ["\u00e3\u0001\u0000\u0000\u0000\u0000\u0000\u0000\u0000\u0001\u0000\u0000\u0000\u0002\u0000\u0000\u0000S\u0000\u0000\u0000s\f\u0000\u0000\u0000|\u0000\u0000d\u0001\u0000\u001bd\u0002\u0000\u0018S)\u0003N\u00e7\u0000\u0000\u0000\u0000\u0000\u00e0_@\u00e7\u0000\u0000\u0000\u0000\u0000\u0000\u00e0?\u00a9\u0000)\u0001\u00da\u0001xr\u0003\u0000\u0000\u0000r\u0003\u0000\u0000\u0000\u00faH/mnt/data/Education/sdc/course/Term1/CarND-BehavioralCloning-P3/model.py\u00da\b<lambda>\u00dc\u0000\u0000\u0000s\u0000\u0000\u0000\u0000", null, null], "input_dtype": "float32", "trainable": false, "name": "lambda_1", "batch_input_shape": [null, 64, 64, 3], "arguments": {}, "output_shape_type": "raw", "function_type": "lambda"}}, {"class_name": "Convolution2D", "config": {"b_constraint": null, "bias": true, "border_mode": "same", "activity_regularizer": null, "W_constraint": null, "nb_col": 1, "subsample": [1, 1], "trainable": false, "b_regularizer": null, "nb_row": 1, "name": "color_conv", "dim_ordering": "tf", "activation": "linear", "init": "glorot_uniform", "W_regularizer": null, "nb_filter": 3}}, {"class_name": "Convolution2D", "config": {"b_constraint": null, "bias": true, "border_mode": "same", "activity_regularizer": null, "W_constraint": null, "nb_col": 3, "subsample": [1, 1], "trainable": false, "b_regularizer": null, "nb_row": 3, "name": "block1_conv1", "dim_ordering": "tf", "activation": "elu", "init": "glorot_uniform", "W_regularizer": null, "nb_filter": 64}}, {"class_name": "Convolution2D", "config": {"b_constraint": null, "bias": true, "border_mode": "same", "activity_regularizer": null, "W_constraint": null, "nb_col": 3, "subsample": [1, 1], "trainable": false, "b_regularizer": null, "nb_row": 3, "name": "block1_conv2", "dim_ordering": "tf", "activation": "elu", "init": "glorot_uniform", "W_regularizer": null, "nb_filter": 64}}, {"class_name": "MaxPooling2D", "config": {"strides": [2, 2], "trainable": false, "name": "block1_pool", "dim_ordering": "tf", "border_mode": "valid", "pool_size": [2, 2]}}, {"class_name": "Convolution2D", "config": {"b_constraint": null, "bias": true, "border_mode": "same", "activity_regularizer": null, "W_constraint": null, "nb_col": 3, "subsample": [1, 1], "trainable": false, "b_regularizer": null, "nb_row": 3, "name": "block2_conv1", "dim_ordering": "tf", "activation": "elu", "init": "glorot_uniform", "W_regularizer": null, "nb_filter": 128}}, {"class_name": "Convolution2D", "config": {"b_constraint": null, "bias": true, "border_mode": "same", "activity_regularizer": null, "W_constraint": null, "nb_col": 3, "subsample": [1, 1], "trainable": false, "b_regularizer": null, "nb_row": 3, "name": "block2_conv2", "dim_ordering": "tf", "activation": "elu", "init": "glorot_uniform", "W_regularizer": null, "nb_filter": 128}}, {"class_name": "MaxPooling2D", "config": {"strides": [2, 2], "trainable": false, "name": "block2_pool", "dim_ordering": "tf", "border_mode": "valid", "pool_size": [2, 2]}}, {"class_name": "Convolution2D", "config": {"b_constraint": null, "bias": true, "border_mode": "same", "activity_regularizer": null, "W_constraint": null, "nb_col": 3, "subsample": [1, 1], "trainable": false, "b_regularizer": null, "nb_row": 3, "name": "block3_conv1", "dim_ordering": "tf", "activation": "elu", "init": "glorot_uniform", "W_regularizer": null, "nb_filter": 256}}, {"class_name": "Convolution2D", "config": {"b_constraint": null, "bias": true, "border_mode": "same", "activity_regularizer": null, "W_constraint": null, "nb_col": 3, "subsample": [1, 1], "trainable": false, "b_regularizer": null, "nb_row": 3, "name": "block3_conv2", "dim_ordering": "tf", "activation": "elu", "init": "glorot_uniform", "W_regularizer": null, "nb_filter": 256}}, {"class_name": "Convolution2D", "config": {"b_constraint": null, "bias": true, "border_mode": "same", "activity_regularizer": null, "W_constraint": null, "nb_col": 3, "subsample": [1, 1], "trainable": false, "b_regularizer": null, "nb_row": 3, "name": "block3_conv3", "dim_ordering": "tf", "activation": "elu", "init": "glorot_uniform", "W_regularizer": null, "nb_filter": 256}}, {"class_name": "MaxPooling2D", "config": {"strides": [2, 2], "trainable": true, "name": "block3_pool", "dim_ordering": "tf", "border_mode": "valid", "pool_size": [2, 2]}}, {"class_name": "Convolution2D", "config": {"b_constraint": null, "bias": true, "border_mode": "same", "activity_regularizer": null, "W_constraint": null, "nb_col": 3, "subsample": [1, 1], "trainable": true, "b_regularizer": null, "nb_row": 3, "name": "block4_conv1", "dim_ordering": "tf", "activation": "elu", "init": "glorot_uniform", "W_regularizer": null, "nb_filter": 512}}, {"class_name": "Convolution2D", "config": {"b_constraint": null, "bias": true, "border_mode": "same", "activity_regularizer": null, "W_constraint": null, "nb_col": 3, "subsample": [1, 1], "trainable": true, "b_regularizer": null, "nb_row": 3, "name": "block4_conv2", "dim_ordering": "tf", "activation": "elu", "init": "glorot_uniform", "W_regularizer": null, "nb_filter": 512}}, {"class_name": "Convolution2D", "config": {"b_constraint": null, "bias": true, "border_mode": "same", "activity_regularizer": null, "W_constraint": null, "nb_col": 3, "subsample": [1, 1], "trainable": true, "b_regularizer": null, "nb_row": 3, "name": "block4_conv3", "dim_ordering": "tf", "activation": "elu", "init": "glorot_uniform", "W_regularizer": null, "nb_filter": 512}}, {"class_name": "MaxPooling2D", "config": {"strides": [2, 2], "trainable": true, "name": "block4_pool", "dim_ordering": "tf", "border_mode": "valid", "pool_size": [2, 2]}}, {"class_name": "Convolution2D", "config": {"b_constraint": null, "bias": true, "border_mode": "same", "activity_regularizer": null, "W_constraint": null, "nb_col": 3, "subsample": [1, 1], "trainable": true, "b_regularizer": null, "nb_row": 3, "name": "block5_conv1", "dim_ordering": "tf", "activation": "elu", "init": "glorot_uniform", "W_regularizer": null, "nb_filter": 512}}, {"class_name": "Convolution2D", "config": {"b_constraint": null, "bias": true, "border_mode": "same", "activity_regularizer": null, "W_constraint": null, "nb_col": 3, "subsample": [1, 1], "trainable": true, "b_regularizer": null, "nb_row": 3, "name": "block5_conv2", "dim_ordering": "tf", "activation": "elu", "init": "glorot_uniform", "W_regularizer": null, "nb_filter": 512}}, {"class_name": "Convolution2D", "config": {"b_constraint": null, "bias": true, "border_mode": "same", "activity_regularizer": null, "W_constraint": null, "nb_col": 3, "subsample": [1, 1], "trainable": true, "b_regularizer": null, "nb_row": 3, "name": "block5_conv3", "dim_ordering": "tf", "activation": "elu", "init": "glorot_uniform", "W_regularizer": null, "nb_filter": 512}}, {"class_name": "MaxPooling2D", "config": {"strides": [2, 2], "trainable": true, "name": "block5_pool", "dim_ordering": "tf", "border_mode": "valid", "pool_size": [2, 2]}}, {"class_name": "Flatten", "config": {"trainable": true, "name": "Flatten"}}, {"class_name": "Dense", "config": {"input_dim": null, "b_constraint": null, "activity_regularizer": null, "output_dim": 1024, "bias": true, "W_constraint": null, "b_regularizer": null, "trainable": true, "name": "fc1", "activation": "elu", "init": "glorot_uniform", "W_regularizer": null}}, {"class_name": "Dropout", "config": {"p": 0.5, "trainable": true, "name": "fc1_dropout"}}, {"class_name": "Dense", "config": {"input_dim": null, "b_constraint": null, "activity_regularizer": null, "output_dim": 256, "bias": true, "W_constraint": null, "b_regularizer": null, "trainable": true, "name": "fc2", "activation": "elu", "init": "glorot_uniform", "W_regularizer": null}}, {"class_name": "Dropout", "config": {"p": 0.5, "trainable": true, "name": "fc2_dropout"}}, {"class_name": "Dense", "config": {"input_dim": null, "b_constraint": null, "activity_regularizer": null, "output_dim": 128, "bias": true, "W_constraint": null, "b_regularizer": null, "trainable": true, "name": "fc3", "activation": "elu", "init": "glorot_uniform", "W_regularizer": null}}, {"class_name": "Dropout", "config": {"p": 0.5, "trainable": true, "name": "fc3_dropout"}}, {"class_name": "Dense", "config": {"input_dim": null, "b_constraint": null, "activity_regularizer": null, "output_dim": 64, "bias": true, "W_constraint": null, "b_regularizer": null, "trainable": true, "name": "fc4", "activation": "elu", "init": "glorot_uniform", "W_regularizer": null}}, {"class_name": "Dropout", "config": {"p": 0.5, "trainable": true, "name": "fc4_dropout"}}, {"class_name": "Dense", "config": {"input_dim": null, "b_constraint": null, "activity_regularizer": null, "output_dim": 32, "bias": true, "W_constraint": null, "b_regularizer": null, "trainable": true, "name": "fc5", "activation": "elu", "init": "glorot_uniform", "W_regularizer": null}}, {"class_name": "Dropout", "config": {"p": 0.5, "trainable": true, "name": "fc5_dropout"}}, {"class_name": "Dense", "config": {"input_dim": null, "b_constraint": null, "activity_regularizer": null, "output_dim": 1, "bias": true, "W_constraint": null, "b_regularizer": null, "trainable": true, "name": "output", "activation": "linear", "init": "zero", "W_regularizer": null}}], "keras_version": "1.1.2", "class_name": "Sequential"}